…
10238/10238 [==============================] - 5762s - loss: 0.0903 - val_loss: 0.0551
Epoch 3/5
10238/10238 [==============================] - 5790s - loss: 0.0533 - val_loss: 0.0467
Epoch 4/5
10238/10238 [==============================] - 5810s - loss: 0.0495 - val_loss: 0.0464
Epoch 5/5
10238/10238 [==============================] - 5816s - loss: 0.0489 - val_loss: 0.0456
_________________________________________________________________
Layer (type)                 Output Shape              Param #   
=================================================================
cropping2d_1 (Cropping2D)    (None, 80, 320, 3)        0         
_________________________________________________________________
conv2d_1 (Conv2D)            (None, 40, 160, 24)       672       
_________________________________________________________________
max_pooling2d_1 (MaxPooling2 (None, 20, 80, 24)        0         
_________________________________________________________________
dropout_1 (Dropout)          (None, 20, 80, 24)        0         
_________________________________________________________________
conv2d_2 (Conv2D)            (None, 20, 80, 36)        7812      
_________________________________________________________________
max_pooling2d_2 (MaxPooling2 (None, 19, 79, 36)        0         
_________________________________________________________________
dropout_2 (Dropout)          (None, 19, 79, 36)        0         
_________________________________________________________________
conv2d_3 (Conv2D)            (None, 10, 40, 48)        6960      
_________________________________________________________________
max_pooling2d_3 (MaxPooling2 (None, 5, 20, 48)         0         
_________________________________________________________________
dropout_3 (Dropout)          (None, 5, 20, 48)         0         
_________________________________________________________________
conv2d_4 (Conv2D)            (None, 5, 20, 48)         20784     
_________________________________________________________________
max_pooling2d_4 (MaxPooling2 (None, 2, 10, 48)         0         
_________________________________________________________________
dropout_4 (Dropout)          (None, 2, 10, 48)         0         
_________________________________________________________________
conv2d_5 (Conv2D)            (None, 2, 10, 64)         27712     
_________________________________________________________________
dropout_5 (Dropout)          (None, 2, 10, 64)         0         
_________________________________________________________________
conv2d_6 (Conv2D)            (None, 1, 5, 64)          36928     
_________________________________________________________________
dropout_6 (Dropout)          (None, 1, 5, 64)          0         
_________________________________________________________________
flatten_1 (Flatten)          (None, 320)               0         
_________________________________________________________________
dense_1 (Dense)              (None, 100)               32100     
_________________________________________________________________
dense_2 (Dense)              (None, 10)                1010      
_________________________________________________________________
dense_3 (Dense)              (None, 1)                 11        
=================================================================
Total params: 133,989
Trainable params: 133,989
Non-trainable params: 0
